assignment2/part1/models/debug.pt (torch, 123943 bytes, 2 tensors)

1.weight f4 [10, 3072]
000000 a0 b7 9b 3c 42 2b 88 3c e9 17 33 bb 78 0f ad 3c
       0.019008458 0.01662219 -0.0027327484 0.02112554
000010 c3 8b 84 bb 8d ba 89 ba 72 ab 68 bc 46 60 a6 3b
       -0.004044981 -0.0010507867 -0.014201032 0.0050773947
000020 0a a4 b7 3b 75 42 c1 bc e5 6d 61 3b c9 48 0e bc
       0.005604272 -0.02359126 0.0034397778 -0.0086843455
000030 fa 5c c6 3b eb fe ab ba 7e c3 90 3b 5a 89 d6 bb
       0.006053564 -0.0013122236 0.0044178357 -0.0065471353
000040 90 76 35 3c 93 d5 4a 3b 11 e0 04 bc 2c a3 d1 3b
       0.011075631 0.0030950054 -0.008110062 0.0063976254
000050 e6 29 e0 bb 99 9a f9 b9 3b cf e8 bb 0e 12 3a 3c
       -0.006840932 -0.00047608165 -0.007104782 0.011356844
000060 d7 bc 56 bc f2 e9 bc bb ff 49 84 b8 76 21 79 bb
       -0.013106546 -0.005765193 -6.308033e-05 -0.003801433
000070 7d ea da 3b e1 a1 d1 bc c4 c9 ec 3b e4 61 5e bc
       0.006680785 -0.025589885 0.007226201 -0.013573144
000080 da 68 a4 3c 69 a5 2d 3c 00 1a 30 bb 04 95 77 3c
       0.020069528 0.010598519 -0.0026870966 0.015111212
000090 d0 91 96 3b 31 24 4f 3c 85 6e 10 3a 43 c9 ee bb
       0.004595019 0.012642906 0.0005509633 -0.007287176
0000a0 5a 64 96 39 d9 13 19 bc a4 f1 35 bb 22 52 fb 3b
       0.00028684997 -0.009343111 -0.0027762437 0.007669703
0000b0 84 9c e7 3b ed 2e 19 bc 42 8b da 3b db 5f 1b 3a
       0.0070682187 -0.009349567 0.006669433 0.00059270643
0000c0 30 9a 09 3c f9 89 2b bc c6 62 92 bc af a3 83 bb
       0.008398578 -0.010469907 -0.017869364 -0.0040173153
0000d0 e6 11 48 bc 9e 27 52 3c f0 7b 38 3b 34 86 a0 3b
       -0.012211299 0.012826828 0.0028150044 0.0048988108
0000e0 ea d8 95 3b e3 e8 81 3a 81 24 97 3c be fd a0 bb
       0.0045729773 0.0009911325 0.018450024 -0.004913061
0000f0 d2 4a 25 3c c3 06 4b bc 2a 00 9b 3b dc c4 d1 3b
       0.010088639 -0.012391749 0.004730244 0.0064016413
000100 d3 32 76 3a 18 ef 36 bc d3 9d 21 3c 87 7e 73 bc
       0.00093917287 -0.011165403 0.009864288 -0.014861709
000110 08 bf 62 bc 6c f7 46 bc 02 4f 8a 3c 43 72 11 3c
       -0.013839491 -0.012143951 0.016883377 0.00887734
000120 15 40 8d 3c fc b1 65 bc b0 e6 d9 bc 0e 61 d8 bc
       0.01724247 -0.014019486 -0.026599258 -0.026413467
000130 39 91 9a bc 75 18 89 3b ac 88 8a ba 75 84 8b 3b
       -0.018868076 0.0041838237 -0.0010569296 0.0042577335
000140 63 69 7e bc 63 21 65 bc a1 e4 24 3c 60 87 ba bb
       -0.015528056 -0.013985011 0.010064275 -0.0056924075
000150 9c 86 3f 3c e4 09 e4 bb 2d 2b 06 3c f5 8a 8c bc
       0.011689808 -0.006959187 0.008189005 -0.017156104
000160 55 1d 44 bc b8 b8 bf 3b d0 02 b1 3b 23 04 3b bb
       -0.011969884 0.0058508776 0.0054019466 -0.0028536401
000170 7a 6c 6b 3c 76 bf 77 3c 26 0f cf bb ba c6 fe 3b
       0.014369125 0.015121331 -0.0063189445 0.007775155
000180 be 4e 32 3c 98 e8 98 bc a1 82 77 bc 1f c3 b2 bc
       0.010883031 -0.018665597 -0.015106828 -0.021821557
000190 f5 90 82 bc a3 c5 4e 3a f7 ed b6 bb e9 5f 6f bc
       -0.015938262 0.00078877265 -0.005582567 -0.014610269
0001a0 6b b7 1d bb 5c 65 3e bc 61 ea 9e bc 51 a6 b1 bc
       -0.0024065624 -0.011620846 -0.01939887 -0.021685751
0001b0 88 2f c7 bc 37 38 64 bc a7 ef 4c 3c e9 88 21 bb
       -0.024314657 -0.013929418 0.012508309 -0.0024648255
0001c0 b8 a8 29 ba 08 20 b9 bc 99 2b 73 bc d7 a4 fc bb
       -0.00064719794 -0.022598282 -0.014841937 -0.00771008
0001d0 8d 0c 92 3b 97 0e 85 bc b6 9e 12 bc 04 b9 83 bc
       0.0044570626 -0.016242309 -0.008948972 -0.016079433
0001e0 b9 d7 7f bb f7 db 69 bb 4e 09 bb 3b f1 67 37 bc
       -0.0039038493 -0.0035684088 0.0057078963 -0.011194215
0001f0 cb 1f 5f bc 36 ae 3a bc 21 85 10 bb 79 b9 a8 bb
       -0.01361842 -0.011394074 -0.0022052007 -0.005149063
000200 49 26 3d 3c 79 87 10 bc ec b6 0f 3c de dd 0c 3b
       0.011544772 -0.008821362 0.008771639 0.0021494548
000210 09 09 97 bc 84 ab 25 3c 99 67 5d bc 52 90 93 bc
       -0.018436925 0.010111693 -0.013513469 -0.018013153
000220 96 be 9e bc 54 ae 82 bc 2f ae d5 3b cd a0 28 bc
       -0.019377988 -0.015952267 0.0065210084 -0.010292244
000230 62 6d 02 3a 4b 31 7d bc 58 42 3f 3c 4b 20 46 bc
       0.0004975406 -0.015453647 0.011673532 -0.01209266
000240 2a 11 d5 bb 2a 2a ab bb c3 4c 91 3b ed 40 85 3c
       -0.0065022903 -0.005223532 0.0044341995 0.01626631
000250 9c 23 96 3c 0a 6b 7b bc c9 25 40 ba b2 29 93 bc
       0.018327527 -0.015345344 -0.0007329849 -0.017964218
000260 ba 54 1c bc 55 24 65 bc a9 49 ab 3c 46 46 62 bc
       -0.009541685 -0.013985713 0.020909147 -0.0138107
000270 4f 80 c1 3b 2f 09 d7 39 16 18 55 3b 7a bc fb bb
       0.005905188 0.00041014838 0.0032515577 -0.0076823803
000280 5b 76 81 3c bb c8 88 3b bc a2 21 ba c8 18 6b bc
       0.015803507 0.0041743196 -0.0006165912 -0.01434917
000290 08 1e 63 3c 44 1a 33 3b 1d 5c 6a bc 16 d8 16 3a
       0.0138621405 0.0027328888 -0.014304188 0.0005754245
0002a0 b5 73 c3 bb d9 27 64 bc 7a e1 31 bc c2 c0 fd bb
       -0.005964721 -0.013925516 -0.01085698 -0.007743926
0002b0 07 7d 8d 3a 59 a9 28 bc cb 42 49 bc 26 fc 08 bc
       0.0010794707 -0.010294282 -0.012283991 -0.008360898
0002c0 89 68 a5 bc 64 26 94 bb 54 e0 f9 3b d9 fa 75 bc
       -0.020191448 -0.004521178 0.007625619 -0.01501342
0002d0 14 25 fa 3b d3 9c 20 3c 97 41 86 ba 93 17 5a bc
       0.0076338146 0.009803015 -0.0010242936 -0.013311285
0002e0 c9 c0 d3 3b 35 57 44 3c 98 67 5b 3c 81 ea 35 3a
       0.0064621908 0.011983682 0.013391398 0.0006939546
0002f0 89 b1 47 bb b7 14 8d ba 78 f0 42 bb 40 05 0f 39
       -0.003047081 -0.001076362 -0.0029745381 0.00013639499
000300 18 a7 6d 3c 2a c4 8e 3c 85 a5 fd b9 2d 15 85 3b
       0.01450517 0.017427523 -0.00048379242 0.0040613622
000310 86 10 3b 3c 2a f3 19 3c 0d d4 e1 3b 97 74 ce b9
       0.011417514 0.009396354 0.0068917335 -0.00039378248
000320 e8 fc bf bc 34 fe 30 bc 67 18 71 3c e6 56 b5 3b
       -0.023436025 -0.010802794 0.014715291 0.0055340407
000330 02 1b 0d bc a2 54 ae bc 83 0c 81 bc 4b 59 9e bc
       -0.008612396 -0.02128059 -0.015753036 -0.019329688
000340 7a 6d 89 bc c9 a8 71 bc f2 8f 40 bb e6 57 ee 3b
       -0.016775835 -0.014749714 -0.0029382673 0.007273662
000350 a6 2e 0d bc ba a3 bc bb fe 73 2f bb 6a 0c 75 3c
       -0.008617079 -0.0057568224 -0.0026772018 0.014956573
000360 84 b5 87 3b 36 0c cb 3a c1 dc a4 3c 19 f5 f2 3b
       0.0041415114 0.001549131 0.020124795 0.007414472
000370 89 69 2d bb f2 a6 5b 3c cc 05 bb bb 2e a7 ad 3b
       -0.002646061 0.013406502 -0.005707478 0.0052994704
000380 18 73 83 bc ba 66 3a 3c f2 0e 8d 3c e4 c1 74 3c
       -0.016046092 0.011377031 0.01721904 0.014938805
000390 b1 d4 b2 bb 86 b5 3f bc 71 e9 66 bc 56 e0 42 3c
       -0.0054574837 -0.011700993 -0.014093743 0.011894306
0003a0 9c cb 07 3c 4a f3 81 3c b7 10 2d 3c 1e ce 0d 3c
       0.00828829 0.01586308 0.010563067 0.008655099
0003b0 2e e4 f5 bb 3d a5 e1 bc 09 63 be bc 2b cd a2 bc
       -0.007504008 -0.027544612 -0.023240583 -0.019873222
0003c0 d3 f1 65 bb 98 db e9 bc b3 b7 9b bc 35 3f 4b bc
       -0.0035086765 -0.028547093 -0.019008493 -0.012405206
0003d0 d9 4f 5e 3b db 1f 0c bc ca 3e 0f bc 2b c5 b8 3b
       0.0033922105 -0.008552517 -0.008742997 0.0056387386
0003e0 16 e6 8c bb 2d 7e 92 3c 94 7f 17 3c 38 c8 ab 3b
       -0.0042998893 0.01788243 0.009246726 0.005242374
0003f0 be bf 7e 3b 86 b7 66 bc 94 67 bc bb f1 9f f0 bb
       0.0038871611 -0.014081841 -0.005749652 -0.0073432853

1.bias f4 [10]
000000 46 99 61 bd e0 e5 3d bd 1d 3d 49 3e 7a 3e 57 3e
       -0.055077814 -0.046361804 0.19652219 0.21019927
000010 a6 ff d6 bd a3 e3 0a 3e 87 6d f1 bc 58 2c c4 bc
       -0.1049798 0.13563399 -0.029471172 -0.023946926
000020 42 e7 03 be 70 74 1f be
       -0.12881187 -0.15571761
